satbotTA/NN/model.pth (torch, 6535 bytes, 6 tensors)

l1.weight f4 [10, 55]
0.7981635 0.5950494 0.45823294 0.4724527 -0.94212735 -0.012707794 -0.30506837 -0.2794295
0.37007853 0.5224064 0.04009363 -0.33166364 -0.38050446 -0.91656846 0.76685977 0.45780262
-0.3245461 -0.20938629 -0.21172254 -0.2680785 -0.829797 0.14218152 -0.19797687 -0.40782514
0.6550708 -0.08998236 -0.40568876 -0.35999238 -0.4589699 0.7465486 0.27077138 -0.0675101
0.5262977 0.65194947 0.5699246 0.12749214 1.0866896 -0.37417108 0.08324541 -0.3126822
-0.07748445 0.93383086 1.2505971 0.71184623 0.16786404 -0.33079973 -0.26983988 0.57485443
-0.103897415 0.41520265 -0.7534565 0.481044 0.036883872 0.37740123 0.82372236 -0.39916593
0.36946723 0.3567337 -0.18615702 -0.0119308075 -0.4667687 0.26612946 0.13433659 0.6822871
0.36446762 -0.11331986 0.70940316 0.27015 -0.6798348 -0.41553462 -0.10023905 -0.27692667
0.4137273 -0.25191885 0.2619191 -0.03668456 -0.60333145 0.20909265 -0.05404259 0.581633
-0.3078695 0.562094 0.9378815 0.74109155 0.47449803 -0.13163584 -0.34837827 -0.21423289
-0.24234387 0.3811648 0.6186972 -0.21987514 0.6871706 0.6328808 0.22846562 -0.40510347
-0.22520551 0.8636192 0.58101183 -0.09494434 0.51814175 0.33154297 0.6740592 -0.850943
0.28416845 0.6317952 0.25103945 -0.54106194 -0.053674065 -0.3349613 0.01537276 -0.28877127
0.4332316 0.31937686 -0.44514233 -0.56024766 -0.19155423 0.27228028 -0.006311327 0.532508
0.87007695 -0.5989306 -0.43596503 0.69649947 0.033016086 -0.6733841 -0.20866437 -0.07610176
0.11246905 0.2817777 -0.7036612 0.9559414 0.325063 0.48606622 -0.111752555 0.1356037
-0.08165023 1.1461911 1.0493203 -0.15682025 0.5551343 0.24989656 0.93241066 0.9515094
0.46593088 0.53881055 -0.629827 -0.24118668 0.6747931 0.41217577 0.28597432 0.8881341
0.47719318 -0.16907005 0.44512126 -0.16892199 0.30514747 -0.09991801 -0.86631083 -0.1341743
0.5067826 0.56913704 -0.3263251 0.2656743 0.074344374 0.008470723 0.528395 0.5335057
0.88043046 0.38151732 -0.5538935 0.6687277 -0.15926866 0.48894048 -0.30320138 -0.7333748
-1.0001975 0.60512966 0.87560827 -0.12073464 0.4856433 -0.040147547 -0.50473857 0.21939091
0.5365084 0.60688317 -0.6827683 -0.11556592 0.23075628 0.57626694 0.194012 -0.44429806
-0.8678104 -0.94506 0.4160293 0.126811 0.2566034 0.7206756 0.64419544 -0.3237155
-0.15400127 -0.16443409 0.4843785 -0.11482088 -0.23458804 0.0941745 0.15541162 -0.20363912
0.47480124 0.038428787 -0.52356213 -0.22457384 0.3635252 0.98394233 0.084081925 -0.06577112
-0.21536264 0.3503826 0.7546534 -0.16524227 0.5584787 0.5613224 0.5116146 0.028490763
0.68232036 0.8338366 -0.25968742 -0.30601114 -0.04511991 0.06676749 -0.7261714 0.40844437
0.36135054 -0.8821155 0.43051758 0.80215466 0.9023318 0.6300093 0.490848 -0.33268982
0.47252777 -0.6411973 -0.3326911 0.3131521 0.5397191 0.5725928 0.6706278 -0.70503104
-0.60340655 0.34553587 -0.55204105 0.6886546 -0.22665066 -0.26087445 0.07976604 -0.5005269
00000000: 7154 4c3f 2855 183f 829d ea3e 52e5 f13e
00000010: 422f 71bf 5a34 50bc ec31 9cbe 6211 8fbe
00000020: ef7a bd3e 6dbc 053f 3839 243d d1cf a9be
00000030: 7bd1 c2be 3ba4 6abf ec50 443f 1b65 ea3e
00000040: e82a a6be 5c69 56be cbcd 58be 9641 89be
00000050: 946d 54bf 0898 113e 73ba 4abe 75ce d0be
00000060: b8b2 273f ac48 b8bd 70b6 cfbe ec50 b8be
00000070: 1afe eabe cf1d 3f3f 8ca2 8a3e bc42 8abd
00000080: 72bb 063f 29e6 263f 94e6 113f 4d8d 023e
00000090: a518 8b3f 5a93 bfbe 927c aa3d e217 a0be
000000a0: 2bb0 9ebd 8a0f 6f3f 9113 a03f 8e3b 363f
000000b0: 8de4 2b3e 955e a9be 7428 8abe a929 133f
000000c0: 2bc8 d4bd 7195 d43e 86e2 40bf 664b f63e
000000d0: 8b13 173d bc3a c13e 78df 523f 7a5f ccbe
000000e0: cf2a bd3e cda5 b63e f29f 3ebe 6f79 43bc
000000f0: 4ffc eebe 1f42 883e 888f 093e 5eaa 2e3f
00000100: 809b ba3e 3e14 e8bd 729b 353f 1a51 8a3e
00000110: a709 2ebf f4c0 d4be 224a cdbd 55c9 8dbe
00000120: 11d4 d33e 82fb 80be 431a 863e 8d42 16bd
00000130: ee73 1abf 621c 563e c35b 5dbd e6e5 143f
00000140: 12a1 9dbe 64e5 0f3f 0119 703f 2db8 3d3f
00000150: 68f1 f23e 8ccb 06be a35e b2be de5f 5bbe
00000160: fe28 78be 0828 c33e f162 1e3f f326 61be
00000170: 6aea 2f3f 7a04 223f e4f2 693e b969 cfbe
00000180: 469c 66be 2616 5d3f 31bd 143f 2e72 c2bd
00000190: f0a4 043f 00c0 a93e 258f 2c3f 67d7 59bf
000001a0: 877e 913e 55bd 213f 3e88 803e 0983 0abf
000001b0: 56d9 5bbd 0c80 abbe 07de 7b3c d4d9 93be
000001c0: 88d0 dd3e 5d85 a33e b2e9 e3be 646c 0fbf
000001d0: cb26 44be 5268 8b3e 40cf cebb 7252 083f
000001e0: 5dbd 5e3f 8453 19bf cf36 dfbe ca4d 323f
000001f0: e03b 073d e662 2cbf 1dac 55be 3ddb 9bbd
00000200: 2c56 e63d 2b45 903e 2423 34bf 93b8 743f
00000210: a86e a63e acdd f83e 86de e4bd b2db 0a3e
00000220: 3c38 a7bd 64b6 923f 2150 863f 7d95 20be
00000230: 481d 0e3f e2e4 7f3e 77b2 6e3f 1f96 733f
00000240: 7e8e ee3e 7def 093f 583c 21bf a4f9 76be
00000250: 3ebf 2c3f b408 d33e 3a6b 923e c25c 633f
00000260: aa52 f43e b320 2dbe efe6 e33e e3f9 2cbe
00000270: 4a3c 9c3e d0a1 ccbd 8cc6 5dbf fd64 09be
00000280: 81bc 013f f7b2 113f 1514 a7be 7606 883e
00000290: dd41 983d cac8 0a3c e544 073f d493 083f
000002a0: e463 613f 3d56 c33e f7cb 0dbf bd31 2b3f
000002b0: 5317 23be 6856 fa3e 363d 9bbe 73be 3bbf
000002c0: 7906 80bf c7e9 1a3f dd27 603f b943 f7bd
000002d0: 3da6 f83e c171 24bd 8c36 01bf 03a8 603e
000002e0: 9d58 093f b25c 1b3f e7c9 2ebf d3ad ecbd
000002f0: 604b 6c3e 3b86 133f 15ab 463e 097b e3be
00000300: d328 5ebf 74ef 71bf cb01 d53e beda 013e
00000310: 8561 833e 327e 383f fee9 243f 0abe a5be
00000320: 82b2 1dbe 6961 28be 7500 f83e 3627 ebbd
00000330: d937 70be 8fde c03d 3924 1f3e c686 50be
00000340: 2619 f33e 8167 1d3d 2b08 06bf aff6 65be
00000350: fa1f ba3e a5e3 7b3f 2533 ac3d 02b3 86bd
00000360: 0688 5cbe 5965 b33e f730 413f 4535 29be
00000370: 76f8 0e3f d3b2 0f3f 2df9 023f 7665 e93c
00000380: 8cac 2e3f 5176 553f c0f5 84be 7ead 9cbe
00000390: a8cf 38bd 65bd 883d 5ee6 39bf 9f1f d13e
000003a0: f002 b93e 52d2 61bf cd6c dc3e 025a 4d3f
000003b0: 38ff 663f 4a48 213f 6e50 fb3e 5256 aabe
000003c0: 29ef f13e 8225 24bf 7d56 aabe 7955 a03e
000003d0: 082b 0a3f 7195 123f 43ae 2b3f ea7c 34bf
000003e0: da78 1abf 14ea b03e 9052 0dbf ab4b 303f
000003f0: 1c17 68be 5691 85be 615c a33d 8822 00bf

l1.bias f4 [10]
0.4921285 0.48271936 0.4063107 0.49360865 0.7184171 0.61492133 0.8039652 0.42272174
0.50733685 0.5581638
00000000: 44f8 fb3e fe26 f73e f507 d03e 46ba fc3e
00000010: 2fea 373f 7c6b 1d3f aad0 4d3f fc6e d83e
00000020: d4e0 013f d3e3 0e3f

l2.weight f4 [10, 10]
1.2055166 -1.0802014 0.1396194 0.0054838913 0.7818066 1.2606041 0.5186002 0.23396344
-0.9100393 -0.90651083 1.1874275 -0.7388233 -0.09273002 0.7351682 1.4911596 0.59501505
0.48186743 1.266194 -0.40578884 0.82469517 -0.5074356 1.3410852 0.6710014 -1.23535
0.17613131 1.2783431 0.27473202 0.6272671 -0.028626867 0.45044336 0.3019347 0.59172654
2.0338416 -0.94049895 -0.85253435 0.86530596 0.51246226 -0.10108765 0.39188135 0.121838965
0.8142391 1.0104059 0.76425695 0.50082725 -0.70075274 -0.053079955 0.14872363 -0.051953558
1.1665797 -0.44541112 -1.5670153 -0.24664398 0.8152948 1.1320802 -0.11674751 -0.1688876
-0.04260632 0.5234004 1.0485622 1.1679368 0.9517168 1.1228508 -0.670108 0.5066557
0.6447797 -0.11424698 0.9326817 -0.90129817 0.48868904 -0.59442025 -1.016157 0.37400717
-0.81051713 0.87459666 0.3310938 -0.29935926 1.4704901 1.3722237 0.74364895 -0.58768946
0.3528321 0.62797683 0.260115 1.2751316 0.07147534 0.15790671 -0.8032777 -1.2006488
1.0772938 1.1934369 0.46651813 0.13758509 1.5177443 0.26500311 -0.5311388 -0.046304327
0.68244785 0.47096696 0.4787003 -0.6558038
00000000: 5e4e 9a3f 0a44 8abf 63f8 0e3e 37b2 b33b
00000010: 7a24 483f 7a5b a13f fcc2 043f 1d94 6f3e
00000020: 56f8 68bf 1811 68bf a0fd 973f 8623 3dbf
00000030: 3de9 bdbd fc33 3c3f 51de be3f e852 183f
00000040: 54b7 f63e a512 a23f 8ec3 cfbe 391f 533f
00000050: 4de7 01bf aea8 ab3f bfc6 2b3f f31f 9ebf
00000060: c45b 343e bfa0 a33f ada9 8c3e 9494 203f
00000070: e482 eabc 83a0 e63e 2f97 9a3e 647b 173f
00000080: 762a 0240 8ac4 70bf b13f 5abf b184 5d3f
00000090: ba30 033f 0b07 cfbd aca4 c83e b586 f93d
000000a0: f971 503f fb54 813f 58a6 433f 3736 003f
000000b0: 8864 33bf 5e6a 59bd 024b 183e 41cd 54bd
000000c0: 7c52 953f ed0c e4be f593 c8bf 3d90 7cbe
000000d0: 29b7 503f 01e8 903f 5219 efbd dff0 2cbe
000000e0: f783 2ebd 92fd 053f 4937 863f f47e 953f
000000f0: b6a3 733f 93b9 8f3f 338c 2bbf 30b4 013f
00000100: 4810 253f 52fa e9bd 3ac4 6e3f 7abb 66bf
00000110: 7335 fa3e ed2b 18bf 6f11 82bf de7d bf3e
00000120: 0d7e 4fbf 91e5 5f3f 2085 a93e 9e45 99be
00000130: 0539 bc3f 07a5 af3f c75f 3e3f d172 16bf
00000140: 69a6 b43e 17c3 203f cb2d 853e 8337 a33f
00000150: aa61 923d 4cb2 213e 9ba3 4dbf dcae 99bf
00000160: c3e4 893f 8ac2 983f 77db ee3e 1be3 0c3e
00000170: 7245 c23f 7dae 873e b6f8 07bf 9ba9 3dbd
00000180: e7b4 2e3f 9522 f13e 3518 f53e c2e2 27bf

l2.bias f4 [10]
0.30519378 0.37671745 0.088410966 0.21407256 -0.1661158 0.15288508 0.45316407 0.16091567
0.48067883 -0.4220128
00000000: 5c42 9c3e 1ce1 c03e cf10 b53d d635 5b3e
00000010: 431a 2abe e88d 1c3e 1f05 e83e 14c7 243e
00000020: 891b f63e 1012 d8be

l3.weight f4 [22, 10]
-1.7373915 -0.53503865 -0.71385586 -0.5901225 -0.018246466 0.28256664 -0.03324243 -0.26348153
0.57423663 -2.2615912 -0.580675 0.106460065 -1.5294179 -1.2063916 0.30163142 -1.9792445
0.4424421 0.15086325 -1.2169311 0.06405635 -0.20047343 0.18238047 0.33514836 -1.7175922
-1.5800638 0.15682408 -1.907406 0.54533815 -1.1482494 -1.1433958 0.2801249 0.05199069
0.14280112 0.31648672 -1.7657372 -1.3715587 -2.416422 0.2665447 -1.1031024 0.027170468
-1.0024631 -0.11826275 -0.76630336 0.006310512 -0.27489 0.45496577 -1.665171 0.5087684
-0.64418304 0.20477545 -0.21696304 -0.20700231 -0.21651042 0.11313174 0.41029826 -0.6303065
-0.3562315 0.09877784 -1.5338498 -0.15057495 -2.145007 -0.55544704 0.36356756 -0.10686636
0.18949415 -1.4676521 0.658824 0.24254796 -0.25344557 -0.54844654 0.34983075 0.4760497
0.3669396 -0.40695608 -1.2166373 -1.9851629 -0.75405836 -0.22725576 -1.4714572 -2.508892
0.43726307 -0.22966723 0.068704434 0.4386333 -0.5179746 -0.2953707 -1.3185158 -1.2660778
0.049991287 -0.91046053 0.02751698 0.06989371 -0.75244564 -1.2545856 -0.52170104 -0.22944371
-0.49314207 0.551412 -1.971103 -0.10707384 -1.4513927 -1.275578 0.26462597 0.36890548
0.1951257 0.05424881 -0.50937796 0.036290776 -0.7418984 0.34286642 -0.31433427 -0.05994293
-0.03162918 -0.8483643 -1.2883648 -1.6669328 0.7811068 0.37563214 -1.2509243 -1.6570488
-0.3071811 -1.216015 0.22126822 0.43352672 -0.09902017 -1.2125615 0.2573988 -0.663732
0.027708996 0.037690297 -1.2997488 -0.49067646 -1.4157349 0.34577805 0.5419699 -0.44451952
0.025972597 -1.1529602 0.13191295 0.3874561 -0.6285383 -0.20339209 0.30770865 0.55661345
-0.19577554 -0.23543507 -1.9433471 -0.02277888 -1.8129841 -0.07572717 -0.812341 0.2945305
-0.39760733 -0.7955729 -1.4568529 0.58776355 -1.887408 -0.7047176 0.1803046 -1.3103403
0.018147286 0.39463305 -1.392951 -0.72755414 0.5570062 -0.9796508 -0.5576026 -1.1946111
-0.60306257 0.42138228 -1.3363533 -1.6145964 -1.1685297 -0.56261146 0.11926643 -0.16469675
0.32994482 0.6159323 0.0933515 -0.107481845 -0.9783188 -1.1977805 0.29225656 0.3572059
-0.001620758 0.526539 -1.2766967 -1.1119937 0.17553708 -0.48590982 0.53396046 0.28727004
-0.92545474 -1.2872163 -0.6616741 -0.98471105 0.5407951 -1.7621014 -0.58400863 -1.5743395
-0.4108689 0.2957699 -1.6617761 -0.6605095 -1.7366277 -0.43503752 0.34704307 0.08754072
-0.004052815 -1.8835126 0.49608156 -0.037453007 0.22334939 0.3681758 -0.765665 -1.4794987
-0.19838041 -1.6905953 -1.9200917 -0.10348856
00000000: d862 debf 4bf8 08bf 42bf 36bf 4512 17bf
00000010: 9d79 95bc 93ac 903e 3729 08bd 0de7 86be
00000020: 2c01 133f e9bd 10c0 1ea7 14bf bc07 da3d
00000030: f7c3 c3bf 0a6b 9abf 6f6f 9a3e e257 fdbf
00000040: c587 e23e e57b 1a3e 66c4 9bbf fa2f 833d
00000050: e848 4dbe f2c1 3a3e 9198 ab3e 10da dbbf
00000060: 883f cabf 7e96 203e e125 f4bf 489b 0b3f
00000070: d6f9 92bf cb5a 92bf 886c 8f3e 31f4 543d
00000080: 753a 123e 8c0a a23e ad03 e2bf 3c8f afbf
00000090: a8a6 1ac0 8c78 883e 7632 8dbf 9a94 de3c
000000a0: b650 80bf be33 f2bd 752c 44bf 69c8 ce3b
000000b0: 62be 8cbe 46f1 e83e 5324 d5bf a53e 023f
000000c0: 2ee9 24bf a8b0 513e 8f2b 5ebe 6af8 53be
000000d0: e8b4 5dbe 9db1 e73d 9d12 d23e c45b 21bf
000000e0: fa63 b6be 094c ca3d 3155 c4bf 5230 1abe
000000f0: cb47 09c0 c731 0ebf 8725 ba3e c0dc dabd
00000100: c10a 423e 06dc bbbf b1a8 283f 7e5e 783e
00000110: 9ec3 81be fe66 0cbf 041d b33e c9bc f33e
00000120: 82df bb3e 8c5c d0be c5ba 9bbf d119 febf
00000130: f809 41bf bcb5 68be b658 bcbf b091 20c0
00000140: f2e0 df3e e32d 6bbe e9b4 8c3d 8b94 e03e
00000150: fc99 04bf d43a 97be 20c5 a8bf d60e a2bf
00000160: aac3 4c3d f113 69bf 4a6b e13c 6f24 8f3d
00000170: 47a0 40bf 4396 a0bf 338e 05bf 4bf3 6abe
00000180: 1e7d fcbe 5629 0d3f 1a4d fcbf 8849 dbbd
00000190: 3cc7 b9bf 2446 a3bf 0e7d 873e 2ee1 bc3e
000001a0: 08cf 473e 0034 5e3d 9866 02bf a3a5 143d
000001b0: 0eed 3dbf 308c af3e 6cf0 a0be b886 75bd
000001c0: 998d 01bd 672e 59bf 23e9 a4bf 0e5e d5bf
000001d0: 9ef6 473f db52 c03e 4a1e a0bf 2d1a d4bf
000001e0: d746 9dbe 61a6 9bbf 2394 623e 37f7 dd3e
000001f0: 16cb cabd 3735 9bbf c7c9 833e 57ea 29bf
00000200: fafd e23c 2461 1a3d 2b5e a6bf f239 fbbe
00000210: cd36 b5bf d209 b13e 8abe 0a3f 1098 e3be
00000220: 7cc4 d43c 3394 93bf 3014 073e a560 c63e
00000230: e3e7 20bf 0446 50be fd8b 9d3e 387e 0e3f
00000240: 6279 48be e415 71be 99bf f8bf c69a babc
00000250: dd0f e8bf d916 9bbd 94f5 4fbf b4cc 963e
00000260: 3093 cbbe aaaa 4bbf 287a babf ac77 163f
00000270: 9696 f1bf 5f68 34bf c5a1 383e 3bb9 a7bf
00000280: 9ea9 943c 580d ca3e 384c b2bf fd40 3abf
00000290: f597 0e3f 65ca 7abf 0bbf 0ebf 04e9 98bf
000002a0: 4f62 1abf 6bbf d73e a00d abbf 18ab cebf
000002b0: 6292 95bf 4e07 10bf f541 f43d 44a6 28be
000002c0: 87ee a83e bdad 1d3f 122f bf3d 711f dcbd
000002d0: 1a73 7abf df50 99bf a7a2 953e b1e3 b63e
000002e0: 9d6f d4ba 43cb 063f cc6a a3bf cf55 8ebf
000002f0: febf 333e 2cc9 f8be a2b1 083f 0f15 933e
00000300: 9aea 6cbf 81c3 a4bf 7963 29bf 0616 7cbf
00000310: 8c71 0a3f 8a8c e1bf 9781 15bf f583 c9bf
00000320: 695d d2be 276f 973e 14b5 d4bf 2717 29bf
00000330: d149 debf 3dbd debe a1af b13e 8d48 b33d
00000340: 7acd 84bb f116 f1bf 67fe fd3e 5368 19bd
00000350: b4b5 643e 8a81 bc3e 9f02 44bf 3760 bdbf
00000360: 3c24 4bbe 6d65 d8bf 91c5 f5bf cff1 d3bd

l3.bias f4 [22]
0.17765334 -0.3802837 0.3252291 -0.16362014 0.11735426 -0.33701766 -0.2745583 0.27464795
0.15496753 0.08035812 -0.18809952 0.1616142 -0.46713337 0.23886952 -0.029400267 0.27506545
-0.046867814 -0.0055708364 0.19565134 0.24199401 0.3359388 -0.041936565
00000000: c2ea 353e 8cb4 c2be 6e84 a63e 0a8c 27be
00000010: 6e57 f03d 948d acbe e892 8cbe a89e 8c3e
00000020: cfaf 1e3e cc92 a43d 299d 40be 317e 253e
00000030: 1b2c efbe 369a 743e d4d8 f0bc 61d5 8c3e
00000040: 77f8 3fbd 908b b6bb d358 483e 47cd 773e
00000050: 2c00 ac3e adc5 2bbd
