satbotTA/NN/model.pth (torch, 6599 bytes, 6 tensors)

l1.weight f4 [10, 56]
0.6356498 -0.056056336 0.5590224 -0.002957349 0.80093986 1.0393511 0.2308629 -0.14500879
0.41629425 -0.36743316 0.50211865 -0.57419884 0.28214708 -0.1128403 0.7018729 0.5457709
-0.6535959 -0.42718008 -0.20431097 0.2543119 0.9894899 0.25813097 -0.15269083 0.46878225
-0.23152037 -0.35003525 -0.60146606 -0.68104064 -0.6797416 -0.6008196 -0.112803996 0.8569233
-0.20227708 -0.2489268 -0.27498934 -0.5068967 -0.0725707 1.2645917 0.5949864 0.04719244
-0.16219616 -0.27643427 0.26522917 -0.115387306 0.6869338 -0.3547268 -0.058621377 -0.7477927
-0.4320545 1.0348028 0.35472658 0.21892454 -0.50173795 0.6197766 0.50268495 0.7228292
0.16345638 -0.119341336 0.1420902 0.3641706 1.1238445 0.1592262 -0.14025956 0.124958195
-0.39756653 -0.47093806 0.9736464 -0.45472977 0.699938 1.1716557 0.17171803 -0.8175209
0.9461853 0.6382058 0.46373954 -0.0063693384 -0.23604667 -0.7667715 -0.0056392998 0.22354938
-0.12975231 0.2503815 0.52692556 -0.109223604 -0.16086483 0.67747676 -0.22090554 -0.20517047
0.23599738 0.86778885 0.8925964 -0.34422204 0.24024814 -0.75462794 -0.3235621 0.16760778
-0.08950164 0.47335196 -1.0640147 -0.18772236 -0.19634481 0.5803902 0.08449947 0.043514863
0.7285254 0.8367946 0.41366366 1.0953826 -0.39814207 0.38134193 0.44255847 0.2840431
-0.24049966 -0.0836452 0.44820526 -0.41008076 0.8975462 0.7960865 0.38905835 0.25322014
0.18015772 0.14076567 -0.27952123 -0.5620555 0.9848969 -0.6937355 -0.33161694 -0.33128485
0.06706551 -0.26370907 -0.51991093 0.5739395 1.1049595 -0.82879096 0.21807927 0.24054448
-0.055681594 -0.38933322 -0.1660822 -0.42619374 -0.62090164 -0.4928314 0.011861605 0.59360015
-0.35080758 0.095668375 -0.09548943 0.09875999 -0.37622464 1.1047629 0.7964297 -0.4312025
0.1055912 -0.27623692 1.1872913 0.036233272 0.766367 -0.20668337 0.23230815 -0.7922193
-0.57667446 -0.7546256 0.24033453 -0.3642859 0.27021942 0.7850971 0.8206529 -0.1991969
0.64744925 -0.1056523 0.43187976 0.20725867 -0.7663491 -0.86285746 -0.116657674 0.4365332
0.6117768 0.68416524 0.49421364 0.7988536 -0.2586814 -0.72167706 0.5791585 0.8934266
0.029526997 0.42376137 0.038138293 0.21288052 -0.21326461 0.3910717 0.34559852 0.12128197
-0.2313326 0.09000744 0.42918304 0.54790354 0.6514827 0.2991861 -0.19069068 1.0151321
0.093909204 -0.6652183 -0.4680302 0.7294131 0.91159064 0.19498746 -0.125289 0.8949291
0.46777448 0.039397385 0.4052254 -0.20465553 1.1244904 0.2026856 0.33432713 0.033898417
0.22600678 0.05920319 0.47350574 0.6983566 0.6110012 -0.39286053 -0.15006644 0.74819565
0.1984793 0.5946964 0.50411713 0.58556056 -0.75683326 0.2565748 -0.18657209 -0.18554765
0.15304436 0.48674884 -0.820825 -0.5439286 -0.1437811 1.2183357 0.044869885 1.0317261
0.84933865 0.0061294734 0.34377152 -0.44110912 0.77372813 0.9762378 -0.16250363 0.4367759
0.66128826 0.4807139 -0.14910306 0.061961293 0.059985384 0.6670131 0.73042035 -0.18865809
00000000: f2b9 223f 549b 65bd 181c 0f3f 15d0 41bb
00000010: 650a 4d3f 7509 853f 5367 6c3e 2f7d 14be
00000020: 8524 d53e 3320 bcbe d98a 003f b2fe 12bf
00000030: 9575 903e d118 e7bd f1ad 333f a4b7 0b3f
00000040: 1052 27bf 59b7 dabe e536 51be 2b35 823e
00000050: 364f 7d3f be29 843e fc5a 1cbe 3a04 f03e
00000060: ad13 6dbe d237 b3be aef9 19bf ae58 2ebf
00000070: 8c03 2ebf 50cf 19bf c805 e7bd 535f 5b3f
00000080: b921 4fbe abe6 7ebe 67cb 8cbe fbc3 01bf
00000090: f29f 94bd 24de a13f 0751 183f dc4c 413d
000000a0: c016 26be cb88 8dbe 1ecc 873e 2e50 ecbd
000000b0: e5da 2f3f c09e b5be f81c 70bd 586f 3fbf
000000c0: 3f36 ddbe 6b74 843f b99e b53e c12d 603e
000000d0: e671 00bf aea9 1e3f f6af 003f 560b 393f
000000e0: 1c61 273e 3b69 f4bd 1880 113e 9274 ba3e
000000f0: 23da 8f3f 310c 233e 34a0 0fbe 15ea ff3d
00000100: d78d cbbe cb1e f1be e440 793f 57d2 e8be
00000110: 232f 333f d0f8 953f dad6 2f3e 0d49 51bf
00000120: 3339 723f 7561 233f 456f ed3e e2b5 d0bb
00000130: 38b6 71be 234b 44bf e0c9 b8bb 21ea 643e
00000140: cadd 04be 0132 803e 98e4 063f a0b0 dfbd
00000150: c0b9 24be 1e6f 2d3f 1035 62be 3518 52be
00000160: 4ca9 713e 6927 5e3f 3381 643f df3d b0be
00000170: 9c03 763e 4c2f 41bf eea9 a5be 60a1 2b3e
00000180: a34c b7bd 305b f23e a231 88bf 4a3a 40be
00000190: 9d0e 49be 7494 143f 0f0e ad3d a43c 323d
000001a0: a480 3a3f 2c38 563f b9cb d33e 7f35 8c3f
000001b0: 47d9 cbbe 403f c33e 0697 e23e 196e 913e
000001c0: 8b45 76be 2d4e abbd 297b e53e 1bf6 d1be
000001d0: 96c5 653f 53cc 4b3f a832 c73e 12a6 813e
000001e0: 447b 383e e024 103e 681d 8fbe dfe2 0fbf
000001f0: 3422 7c3f a698 31bf b2c9 a9be 2b9e a9be
00000200: a459 893d e004 87be e218 05bf b3ed 123f
00000210: 506f 8d3f a52b 54bf 2c50 5f3e 4b51 763e
00000220: 6212 64bd af56 c7be 7411 2abe 1136 dabe
00000230: 69f3 1ebf 6654 fcbe 2d57 423c 2ef6 173f
00000240: 0d9d b3be c8ed c33d f68f c3bd ad42 ca3d
00000250: 84a0 c0be df68 8d3f d1e2 4b3f 93c6 dcbe
00000260: 3340 d83d ed6e 8dbe 29f9 973f 5769 143d
00000270: a130 443f cea4 53be 30e2 6d3e e2ce 4abf
00000280: f0a0 13bf 252f 41bf 411a 763e ae83 babe
00000290: 335a 8a3e 20fc 483f 4f16 523f 46fa 4bbe
000002a0: 3cbf 253f 3c60 d8bd 581f dd3e 9e3b 543e
000002b0: 742f 44bf 3ae4 5cbf 38ea eebd 4881 df3e
000002c0: 689d 1c3f 7425 2f3f 9209 fd3e ab81 4c3f
000002d0: e371 84be d4bf 38bf bb43 143f 9bb7 643f
000002e0: 9ae2 f13c 40f7 d83e e636 1c3d 5afd 593e
000002f0: 0a62 5abe 8d3a c83e 4af2 b03e ae62 f83d
00000300: 74e2 6cbe d255 b83d e1bd db3e 6843 0c3f
00000310: 92c7 263f ec2e 993e 6b44 43be d9ef 813f
00000320: 7853 c03d bf4b 2abf a8a1 efbe d1ba 3a3f
00000330: 015e 693f cbaa 473e c24b 00be 131a 653f
00000340: 2380 ef3e 275f 213d b479 cf3e 3891 51be
00000350: 4def 8f3f d08c 4f3e ed2c ab3e 11d9 0a3d
00000360: 526e 673e 0b7f 723d 586f f23e 80c7 323f
00000370: 936a 1c3f 0425 c9be 04ab 19be c089 3f3f
00000380: 283e 4b3e 063e 183f d20d 013f 4ce7 153f
00000390: d3bf 41bf c65d 833e c10c 3fbe 3400 3ebe
000003a0: a9b7 1c3e 2537 f93e 9621 52bf e83e 0bbf
000003b0: 5a3b 13be 6df2 9b3f 7cc9 373d 9a0f 843f
000003c0: 426e 593f c0d9 c83b d202 b03e 0ed9 e1be
000003d0: 0c13 463f b8ea 793f 5a67 26be 17a1 df3e
000003e0: 304a 293f 2220 f63e 79ae 18be 20cb 7d3d
000003f0: 3cb3 753d 5fc1 2a3f d4fc 3a3f 962f 41be

l1.bias f4 [10]
0.48910546 0.24818127 0.4853561 0.4214639 0.4481437 0.40049922 0.47027734 0.3747883
0.28749457 0.28242576
00000000: 086c fa3e 3b23 7e3e 9880 f83e 1eca d73e
00000010: 1773 e53e 3c0e cd3e 31c8 f03e 41e4 bf3e
00000020: 7d32 933e 1c9a 903e

l2.weight f4 [10, 10]
1.6490148 -0.09672469 1.9009043 -0.56832916 0.36309522 1.3999463 -0.91055316 0.2864
-0.60887235 0.0590701 0.0788502 -1.3022438 0.36129096 1.4128367 0.74989706 0.5429836
1.567806 -0.7159154 0.72107524 -0.00086040737 -0.1401167 1.4055824 -0.31880575 0.15370785
1.3092285 -0.58116317 0.035553824 0.008393578 1.3503811 0.12080636 0.4768547 -0.31925976
-1.1830256 1.5119041 0.8375942 0.29597476 -0.05909427 0.94580257 -0.5830269 -0.2331146
0.49683207 0.44018194 1.2600904 0.7025837 -0.43510348 -0.7580722 -0.06934078 1.0057653
-1.0051247 1.128752 0.0021859128 1.128221 0.81138176 -0.40782747 -0.6418295 -0.12693904
1.0916837 0.95022655 0.25117606 0.87565273 -0.071006484 0.0051138094 0.05418458 0.026336398
-0.28733957 -0.20530967 -0.03364643 0.08424737 -0.19425924 0.043993264 0.21974444 0.9125801
-0.6268984 0.22916651 0.62771463 -0.77953607 0.47870106 -0.9891479 0.19720513 -0.8946338
-0.061651286 0.27614367 0.14509578 -0.59214944 0.78458774 0.89118344 -0.47069827 0.42720985
-0.07507651 -0.34952807 -0.6230443 -0.13233952 0.0067498907 0.15163879 0.32407275 0.48466045
-0.36154503 0.06907441 0.8984184 1.305484
00000000: eb12 d33f 9817 c6bd d550 f33f 057e 11bf
00000010: 9ee7 b93e 7131 b33f 031a 69bf 05a3 923e
00000020: 0fdf 1bbf 7df3 713d 377c a13d edaf a6bf
00000030: 21fb b83e d5d7 b43f 41f9 3f3f f900 0b3f
00000040: dead c83f 3b46 37bf 6398 383f f68c 61ba
00000050: c17a 0fbe 20ea b33f 823a a3be 9765 1d3e
00000060: cd94 a73f 1cc7 14bf e3a0 113d 3885 093c
00000070: 4ad9 ac3f 5369 f73d 4d26 f43e 0476 a3be
00000080: 626d 97bf 1386 c13f 936c 563f 018a 973e
00000090: d50c 72bd 1e20 723f 4041 15bf 98b5 6ebe
000000a0: c660 fe3e 875f e13e a44a a13f 86dc 333f
000000b0: e2c5 debe 0511 42bf 8a02 8ebd ebbc 803f
000000c0: eda7 80bf f27a 903f 8841 0f3b 8c69 903f
000000d0: b7b6 4f3f c3ce d0be f04e 24bf 4ffc 01be
000000e0: 4bbc 8b3f 0c42 733f 269a 803e c72a 603f
000000f0: d96b 91bd be91 a73b a6f0 5d3d 6ebf d73c
00000100: 2c1e 93be b33c 52be d7d0 09bd e389 ac3d
00000110: e5eb 46be 4832 343d b004 613e d99e 693f
00000120: 6a7c 20bf a0aa 6a3e e8b1 203f ad8f 47bf
00000130: 4e18 f53e cc38 7dbf 24f0 493e b906 65bf
00000140: 0f86 7cbd b462 8d3e fd93 143e 1b97 17bf
00000150: beda 483f 9924 643f 5dff f0be 40bb da3e
00000160: b7c1 99bd 58f5 b2be d57f 1fbf 0384 07be
00000170: 302e dd3b 3347 1b3e ddec a53e 6a25 f83e
00000180: 6e1c b9be e276 8d3d c0fe 653f 1a1a a73f

l2.bias f4 [10]
0.5412011 0.7261991 0.33403194 0.20430458 0.07337914 0.08402944 -0.1833918 -0.004620779
-0.21183193 0.06704308
00000000: 288c 0a3f 2fe8 393f 3c06 ab3e 3835 513e
00000010: cd47 963d a117 ac3d 0fcb 3bbe e769 97bb
00000020: 78ea 58be e24d 893d

l3.weight f4 [23, 10]
0.49403986 0.5950933 0.0057198144 -0.7110597 -0.7833472 -0.48738378 0.18023655 -0.792143
-1.7882181 -1.8627735 -0.3359348 0.12292653 0.44476122 -1.1534922 -1.4058608 -2.4166293
-0.06938338 -0.7943658 0.13682066 0.91517633 0.4682129 -2.416418 -0.26544708 -0.6267252
0.33585095 0.3834579 0.23430885 -0.37730822 0.03973814 -2.055367 0.55032635 0.05050646
-0.2796247 0.21401578 -2.1966174 -2.4162855 0.019249288 -0.6915032 0.4491224 -0.8489334
-0.15344408 -0.48382422 0.3458144 -0.096107654 -1.5556921 0.060167156 -0.17069802 -2.5008821
0.0047249054 0.10573222 0.022310384 -0.20570566 -1.3812277 -0.0046998207 -0.029883638 0.17589603
0.17437 -1.5343008 -0.31455395 0.2377085 -1.2140751 0.8542872 -0.92199016 0.49447638
-1.4845712 0.025345616 -0.10639228 -1.2785568 -1.6155795 -1.5377145 0.6922699 -0.35893792
-2.0837212 -0.08169679 -0.3234138 -0.5944275 -0.15942332 -0.883546 0.3136482 -2.617437
0.2675258 0.07064345 -2.1677027 0.27781075 0.47473213 -0.29652336 -0.18921842 -1.2946295
-2.2874858 -2.5227587 0.15624198 -1.4515043 0.012351189 0.36661765 -0.0710963 -0.62584805
-0.19558011 -1.220142 0.68556994 -0.84902513 -1.4281002 0.38755786 0.27539012 0.1377366
-0.4777145 -1.6644663 -0.035705157 0.9027615 -1.8813728 -0.9506863 -1.8113943 -0.46593216
0.4937109 -1.4946275 0.2697292 0.34994236 0.1474461 -1.1004828 -1.1971959 -0.0058289813
-1.4623172 0.5338458 0.17336221 -0.07678167 -1.491882 -1.3655802 0.138532 -0.91588336
-1.4559104 0.49815813 -1.4294946 -0.08662464 -0.2902152 0.21831441 0.1894626 -0.040352333
0.103298426 -1.8053066 -0.11472748 0.28029314 -1.3051988 -0.066595875 -0.14860143 0.30225754
0.013473559 0.058379237 -0.1633504 -1.9291973 -0.35951105 0.09137295 -2.083093 -0.24234946
0.4275566 0.089275986 -2.2758007 -0.0793841 0.02386697 -0.12099903 0.08883202 -0.14074771
-1.1483203 0.4453886 0.384579 -1.7764304 -1.8410573 0.32888606 -0.22094914 0.44344285
-1.5394348 -0.28131595 -0.30146882 -1.9111209 -0.03542539 -0.25232476 0.4431875 0.14867721
-0.059572052 -2.1406078 -1.8503071 0.7397757 0.30265692 -1.253896 -2.0269372 -0.72320074
0.60989094 0.5318926 -0.1884801 -0.12805957 -2.0570447 -0.36388537 -1.2184564 0.6078537
-0.18725732 -1.2885681 0.21752211 0.40505114 -0.16514218 -1.5868883 -2.2363796 -1.9199598
0.08041483 0.1671505 -0.19734147 0.52875733 0.016795287 -1.972814 -0.3354535 -0.6995404
-1.7336475 -0.575463 0.30086952 -1.0008454 0.2956091 -1.9938565 -0.2817425 -0.0027987568
-0.18325345 -1.9438429 -0.14262378 0.3280305 -0.15928754 -1.058922 0.10467356 0.5788505
0.38719153 0.29414067 0.025759775 -1.8221022 -1.7807235 -2.7100525
00000000: cbf2 fc3e 0958 183f 486d bb3b 0208 36bf
00000010: 7189 48bf 5e8a f9be ee8f 383e e2c9 4abf
00000020: 55e4 e4bf 5d6f eebf a5ff abbe e8c0 fb3d
00000030: beb7 e33e a2a5 93bf 3ff3 b3bf 0eaa 1ac0
00000040: e018 8ebd 8f5b 4bbf b71a 0c3e ff48 6a3f
00000050: 9ab9 ef3e 98a6 1ac0 aee8 87be 1071 20bf
00000060: a8f4 ab3e 9854 c43e a9ee 6f3e 8b2e c1be
00000070: 76c4 223d 228b 03c0 30e2 0c3f dddf 4e3d
00000080: f82a 8fbe f426 5b3e 6195 0cc0 6ca4 1ac0
00000090: afb0 9d3c 5b06 31bf 5ff3 e53e b353 59bf
000000a0: 7220 1dbe cfb7 f7be 960e b13e 17d4 c4bd
000000b0: eb20 c7bf d671 763d 76cb 2ebe 740e 20c0
000000c0: 61d3 9a3b 228a d83d 44c4 b63c 81a4 52be
000000d0: 12cc b0bf f400 9abb 88ce f4bc 171e 343e
000000e0: 0d8e 323e f863 c4bf 370d a1be db69 733e
000000f0: d066 9bbf 91b2 5a3f 8c07 6cbf 022c fd3e
00000100: 6e06 bebf 9ca1 cf3c 32e4 d9bd c0a7 a3bf
00000110: 4fcb cebf d4d3 c4bf 9a38 313f b6c6 b7be
00000120: b05b 05c0 a650 a7bd 7e96 a5be 672c 18bf
00000130: de3f 23be 1230 62bf 7f96 a03e 1684 27c0
00000140: 24f9 883e 83ad 903d a4bb 0ac0 363d 8e3e
00000150: 1710 f33e e9d1 97be 79c2 41be 6bb6 a5bf
00000160: 2b66 12c0 e174 21c0 e6fd 1f3e e5ca b9bf
00000170: a45c 4a3c 4fb5 bb3e f09a 91bd 9437 20bf
00000180: 2746 48be 9d2d 9cbf 8381 2f3f b659 59bf
00000190: fdcb b6bf fc6d c63e efff 8c3e d30a 0d3e
000001a0: ff96 f4be 3b0d d5bf 923f 12bd 611b 673f
000001b0: d3d0 f0bf 2d60 73bf c5db e7bf a98e eebe
000001c0: adc7 fc3e f44f bfbf f219 8a3e a52b b33e
000001d0: 1cfc 163e 9fdc 8cbf b73d 99bf 0a01 bfbb
000001e0: 362d bbbf 1eaa 083f dd85 313e b53f 9dbd
000001f0: fdf5 bebf 55cb aebf 55db 0d3e 5577 6abf
00000200: 465b babf 950e ff3e aef9 b6bf 4268 b1bd
00000210: 1697 94be d08d 5f3e 7c02 423e 7d48 25bd
00000220: 208e d33d 4914 e7bf 3ef6 eabd 9582 8f3e
00000230: c110 a7bf 6b63 88bd f92a 18be 80c1 9a3e
00000240: 34c0 5c3c 111f 6f3d 5445 27be f0ef f6bf
00000250: d511 b8be be21 bb3d 6551 05c0 752a 78be
00000260: b3e8 da3e 54d6 b63d b8a6 11c0 2294 a2bd
00000270: aa84 c33c 57ce f7bd 90ed b53d 2b20 10be
00000280: 29fc 92bf f909 e43e 8ae7 c43e 1262 e3bf
00000290: c4a7 ebbf c163 a83e 7e40 62be f10a e33e
000002a0: 330c c5bf a508 90be 1f5a 9abe 9c9f f4bf
000002b0: 371a 11bd b630 81be 79e9 e23e d73e 183e
000002c0: d301 74bd b8ff 08c0 ddd6 ecbf f161 3d3f
000002d0: d9f5 9a3e aa7f a0bf 57b9 01c0 af23 39bf
000002e0: d021 1c3f 1d2a 083f ed00 41be 0c22 03be
000002f0: 9fa6 03c0 2f4f babe 61f6 9bbf 4d9c 1b3f
00000300: 62c0 3fbe cdef a4bf 1ebe 5e3e dd62 cf3e
00000310: 081b 29be 281f cbbf d820 0fc0 3ec1 f5bf
00000320: 88b0 a43d 8029 2b3e e213 4abe a45c 073f
00000330: 4596 893c 2b85 fcbf 90c0 abbe 1415 33bf
00000340: 29e8 ddbf 8b51 13bf 920b 9a3e b41b 80bf
00000350: 135a 973e b136 ffbf 8e40 90be 596b 37bb
00000360: cba6 3bbe d8cf f8bf f80b 12be 9df3 a73e
00000370: 461c 23be c28a 87bf 175f d63d 8c2f 143f
00000380: f83d c63e 9b99 963e 2a06 d33c a53a e9bf
00000390: bfee e3bf 8071 2dc0

l3.bias f4 [23]
0.14301223 0.3396834 -0.13748594 0.041878562 0.021205297 -0.50945663 0.40194866 0.31162605
0.13507256 -0.44235638 0.2534762 -0.18149623 -0.016387774 0.025826838 -0.41289076 0.09622583
-0.22864223 0.32521337 -0.1219564 0.013193226 -0.12293256 -0.14593503 0.40886205
00000000: cc71 123e fcea ad3e 1dc9 0cbe db88 2b3d
00000010: bbb6 ad3c c06b 02bf 37cc cd3e 738d 9f3e
00000020: 7650 0a3e 897c e2be a2c7 813e 26da 39be
00000030: a73f 86bc ce92 d33c 6b66 d3be 0c12 c53d
00000040: 3021 6abe 5e82 a63e 47c4 f9bd 6728 583c
00000050: 11c4 fbbd fe6f 15be 5e56 d13e
