satbotTA/NN/model.pth (torch, 7431 bytes, 6 tensors)

l1.weight f4 [10, 65]
00000000: 9846 9dbd 98ed 403d 74bc 163f d5ef 9bbf
00000010: 9462 8d3f 28a0 a43f 3433 2cbf b5fb aabc
00000020: 05f4 14be f55c 883f 247e d93e 0701 733e
00000030: ec13 58bf 51be 5e3f e0e7 ad3e 05d5 a33e
00000040: 264d 61bf aa05 47be be91 6d3f 9ab6 0b3f
00000050: 9b58 ae3e 3e1f 193e c2ec 23bf 6314 573f
00000060: 9c88 473f e9a4 4e3f be39 74be a00c 123e
00000070: 0052 c23d ea88 093e a93f 91be 3aca 963e
00000080: e6bf 46bf e419 a6bd 5b7b afbe 7261 41bf
00000090: 22d2 a13e 18ad 41bf 4775 223e ab8b 51bf
000000a0: db06 c83e 3866 983d 6a95 d8be f241 0fbf
000000b0: 374f 3e3f b301 d6bb 1bb7 13bd 22be 75be
000000c0: dea3 863f d685 693e 24fc 3ebf 867a e8bd
000000d0: fb2e 04bf a5e6 1abf 81bd dc3e edde 93be
000000e0: 222b bd3d 45ad 123f 344f 3abf c451 5a3f
000000f0: cc8d efbe 6508 003f bd36 c23e c504 e63e
00000100: aacb 4ebe 3024 1c3f d9ff 16be 7957 393f
00000110: f392 ee3e 833d 15bf b195 e9be 3c86 60be
00000120: 1c1d c23f 1e1e 02bf 2f6f 2f3f 405c b03d
00000130: 7d16 443f b495 983e a45c 943d b5f0 2ebf
00000140: 3f45 d2be a905 16bf ec7e 3f3f 4632 c5be
00000150: 82f0 acbe c7f8 62be e853 31bd fa87 b4be
00000160: d62f 933f 22b0 a4be e606 9fbf e117 9fbe
00000170: 033a 493e 5370 11be 5ebb a73d 7e50 0a3f
00000180: 12c4 e5bd d078 45bf efff 13be 77dc 053f
00000190: 3a89 243f 758b 8a3d 4e43 d2be 249c 283f
000001a0: 48d7 2c3e f9e1 393d 6c58 bcbe 6817 b13f
000001b0: 8998 8ebe c206 a7be 0dbb bb3f f0c9 c0be
000001c0: 05dc fbbe 4940 463f ca39 03be e423 4b3f
000001d0: 81d1 b33c 32c8 183e dcf5 3a3f 9374 8dbe
000001e0: d1bc d6be dbca 69be 54fa a03f 1ef6 683e
000001f0: 508e 163f ec07 5abe ba8e 0a3e 84cf 3abf
00000200: 55d9 3f3f ff74 443f fb11 6bbe 9e76 603e
00000210: 0a58 b23e ecb5 12bf feb6 463f 5dbe be3f
00000220: 5526 433e 8a7c 8a3e f994 003f ff1f bc3d
00000230: ccbb 1abf 5161 5dbf 8272 8b3f e14d 4abf
00000240: 0948 403f a4b6 63be b175 43bf 9ddb 8abe
00000250: 3c11 713f addc 62bd 6c5f 39bf 8d76 e33e
00000260: dd48 053f 05d8 f73e 8aaa 86be 47db 9c3f
00000270: 87e7 013f 4440 c33e 4a96 4c3e 01f5 0b3f
00000280: 9fec e1be 8d0f 19bf 4b34 1ebf e877 973e
00000290: 0308 ebbe eedb 09bf 071e db3e 9211 c8bd
000002a0: 6242 02bf a9f9 dfbe f403 26bf c45b b13e
000002b0: 7acb 9b3d 2544 2f3c 9c9b 04bf e0ce f53e
000002c0: c52a a63e 3e28 9a3e 42e9 0dbf f99b f93e
000002d0: 199e 633f aff5 3d3e 3c1e ed3f 5f41 32bf
000002e0: 7331 17bf f686 e23e abda 50bf f363 29bf
000002f0: 7277 733f 1d34 d6bd 49d8 693f a478 14bf
00000300: f4db 473f 7e55 093f 519c 80be d8fc 093f
00000310: 2dd4 5f3f 4390 1e3f 889e 833e 5e0c 5f3f
00000320: 5d3d 53be 5aff 14bf eacc 8ebf a209 94be
00000330: 90ef 8b3f c51a 0f3f 78b9 d7bd 7d9e 493f
00000340: 5c6f 0f3f ae0e 68be 015e 8fbc 6c8b 61bf
00000350: 96e6 203f 812c 733e 7278 3f3e 74ba 273f
00000360: 4c29 d6bd db38 34bf 5251 3b3f e787 99bd
00000370: 6097 9ebf 3ae2 aebe 2718 45be 3dd3 603f
00000380: 4004 8abe a03e b1be 8285 ec3e 0e7c 8b3f
00000390: 45ba 463f 6d0c adbe 3252 213f 5ae3 95be
000003a0: cf9c 593f 51e5 343f b654 0f3e 6287 eb3e
000003b0: 603b 883f f09b 0abf 735e b8be 019c c73e
000003c0: b600 c13f 66dc 683f 7335 d1be b4bd 61bf
000003d0: e373 12be a3c4 57bf 5f1b 693f 25fa 713e
000003e0: e15a 78be 3c33 143f 199e b4be 1900 653f
000003f0: 1f26 6b3f 58b1 4e3f e57b 6c3e 1410 503f
-0.0767948 0.047101587 0.58881307 -1.2182566 1.1045709 1.2861376 -0.6726563 -0.020871976
-0.14546211 1.0653368 0.4247905 0.2373086 -0.844054 0.8700915 0.3396597 0.31998459
-0.88008344 -0.19435754 0.9280051 0.545755 0.34051976 0.14953324 -0.6403314 0.8401548
0.77942824 0.8072038 -0.23850152 0.14262629 0.094882965 0.13431135 -0.2836888 0.29451162
-0.77636564 -0.08110407 -0.342738 -0.75539315 0.3160563 -0.75654745 0.1586505 -0.8185374
0.3906773 0.07441372 -0.42301494 -0.5596 0.7433962 -0.0065309643 -0.036063295 -0.23998311
1.0518758 0.2280496 -0.74603486 -0.113514945 -0.51634187 -0.60508186 0.4311333 -0.28881016
0.092367426 0.5729564 -0.72777104 0.85281014 -0.4678787 0.5001281 0.37932387 0.44925514
-0.20194879 0.6099272 -0.14746036 0.723991 0.46596488 -0.58296984 -0.45622018 -0.21926206
1.5165133 -0.50827205 0.6852903 0.08611345 0.76596814 0.29801714 0.07244232 -0.6833604
-0.41068456 -0.58602387 0.7480304 -0.38514918 -0.33777243 -0.22165214 -0.04329291 -0.35259992
1.1498973 -0.3216563 -1.242398 -0.31072906 0.19651036 -0.14203005 0.08190034 0.5402907
-0.11219038 -0.7713747 -0.144531 0.5228953 0.6427189 0.067648806 -0.41066974 0.6586325
0.16878998 0.04538152 -0.3678621 1.3835268 -0.2785075 -0.32622343 1.4666458 -0.37654066
-0.491913 0.7744184 -0.12815014 0.7935164 0.021950485 0.14920118 0.730314 -0.27628002
-0.4194093 -0.2283129 1.2576394 0.22750136 0.588109 -0.21292084 0.13531008 -0.72972894
0.74941 0.7674102 -0.22956078 0.21920249 0.34832793 -0.5730884 0.77622974 1.4901844
0.19057591 0.2704814 0.50227314 0.0918579 -0.60442805 -0.8647662 1.089432 -0.79025084
0.75109917 -0.2223764 -0.7635146 -0.27120677 0.9416692 -0.055386234 -0.7241123 0.44426385
0.52064306 0.48406997 -0.26301986 1.2254418 0.5074391 0.38134968 0.19979206 0.5467072
-0.4412584 -0.59789354 -0.6179854 0.2958367 -0.4590455 -0.5385121 0.42796347 -0.09768976
-0.5088254 -0.43745163 -0.6484978 0.34640324 0.076071694 0.010697399 -0.5179994 0.48009396
0.32454506 0.30108827 -0.5543405 0.4875181 0.8891311 0.18550752 1.8524852 -0.69631
-0.5905983 0.44243592 -0.8158366 -0.66168135 0.95104134 -0.104591586 0.9134565 -0.57996583
0.78069997 0.53646076 -0.2511926 0.53901434 0.8743313 0.61938876 0.25706887 0.87128246
-0.20628877 -0.58202136 -1.1156285 -0.289136 1.0932484 0.5590022 -0.10533422 0.7875746
0.56029296 -0.2266185 -0.01750088 -0.88103366 0.62851846 0.23747446 0.1869829 0.6551888
-0.104570955 -0.70399255 0.7317096 -0.074966244 -1.2389946 -0.34156972 -0.19247495 0.87822324
-0.26956367 -0.34618092 0.46195608 1.0897233 0.77627975 -0.33798543 0.63016045 -0.29275018
0.85004896 0.7066241 0.13997158 0.46001726 1.064312 -0.5414419 -0.3600956 0.3898621
1.5078342 0.909613 -0.4086109 -0.8818009 -0.1430202 -0.8428442 0.9105739 0.23630579
-0.24253418 0.5789068 -0.3527687 0.89453274 0.91855043 0.80739355 0.23094137 0.81274533

l1.bias f4 [10]
00000000: 37ac 033f ec03 1c3f 178a b43f 451f 613f
00000010: a65e adbd 1215 9c3e 831c 6b3f d06c c53e
00000020: f674 5abd 4eb5 6e3f
0.51434654 0.60943484 1.4104642 0.8793834 -0.084653184 0.30484825 0.9184038 0.3855958
-0.0533342 0.932454

l2.weight f4 [10, 10]
00000000: d050 85bf 48b0 5c3f 763a 06bf 4920 c03e
00000010: 9541 8a3e 41f4 363f 6a72 72bd bf17 123f
00000020: 80a6 ccbd fe4a a53f 91d3 79bf 18a9 013e
00000030: 30aa f73e 8037 983f 7b82 14bd 8640 a93e
00000040: a48d 803f 7711 8b3f 1632 90be 1326 1ebf
00000050: 329c c23e 15f8 e93f bb5c 9c3f 0684 bdbe
00000060: 59b9 863e c11e e33f 6a9a 77bf 85cf 28bf
00000070: 00e7 393c 37bc ba3e 0967 423e 8370 713f
00000080: 982a 03be 045f bf3f b154 19be 364b debf
00000090: 53ec d4be 2ad4 7f3f 4405 093e a567 fa3e
000000a0: 931a 15be 4f55 e93d 6e99 b13f a02b eebf
000000b0: 930d e53d f980 083f 3311 48bd 4feb de3f
000000c0: da76 7a3e e6a6 b83f a576 bf3d 9844 16bf
000000d0: 26f7 1140 c1c9 9b3f f792 123e 256e 90be
000000e0: 2cd0 173f b91d 93bf db9e 9b3e 02ea 253f
000000f0: 35a5 ec3f 5a06 743f ecdc 0abf a0bd db3c
00000100: 6c7b 823e 18f3 833f 0c5a 2cbf e537 e43f
00000110: 361c ae3c a63d a33f 4720 ae3e 49e8 88bf
00000120: c11a 243f 9acd 853f 9c72 393d 8e2f 26bf
00000130: 33f1 11bf ff8c 673f ba00 803e c3c2 a43f
00000140: efb6 f33f 3888 0b3f 6e56 9e3e 64d4 e63f
00000150: 79fd 333e 6c85 b53f c113 1fbe 4e1d 963f
00000160: b91f 91be fd04 4abf 9faf 40be 6ff6 f43f
00000170: 3444 cfbb b867 303f 2e68 05be 5c48 0cbf
00000180: 50e7 1040 56cf c6be 87c4 293e 096c 983e
-1.0415287 0.86206484 -0.52432954 0.37524632 0.2700316 0.7146645 -0.059191145 0.57067484
-0.09992695 1.2913511 -0.9758845 0.1266216 0.4837203 1.1891937 -0.03625725 0.3305704
1.0043225 1.0864705 -0.28163213 -0.61776847 0.38009793 1.8278834 1.2215799 -0.37014788
0.26313284 1.774376 -0.9671999 -0.6594165 0.011346579 0.36471722 0.18984617 0.94312304
-0.12809217 1.4950871 -0.14973713 -1.7366703 -0.4158655 0.9993311 0.13380915 0.489072
-0.14560919 0.113932244 1.3874948 -1.8607063 0.1118423 0.53321797 -0.048844527 1.741556
0.24459401 1.4425933 0.093488015 -0.58698416 2.2807097 1.2170945 0.14313875 -0.28209034
0.5930202 -1.1493446 0.30394635 0.6481019 1.8487917 0.9532219 -0.5424335 0.026823819
0.25484788 1.0308561 -0.673249 1.7829558 0.021253686 1.2753189 0.34009 -1.0695888
0.64103323 1.045337 0.045275316 -0.6491631 -0.57008666 0.9044952 0.25000554 1.2871937
1.9040202 0.5450473 0.30925316 1.8033566 0.17577161 1.4181342 -0.1553488 1.1727693
-0.28344515 -0.7891386 -0.18816994 1.9137706 -0.006325269 0.6890826 -0.13028023 -0.5479791
2.2641182 -0.3883006 0.16578875 0.29769924

l2.bias f4 [10]
00000000: 7901 22be 9a8c 0a3e fc03 253f c5b8 54be
00000010: 90a5 f53e 6a8d 2c3f 10b6 0cbe 5f55 fe3e
00000020: 6c7c 7f3e 4b32 833f
-0.15820874 0.13530198 0.64459205 -0.20773609 0.47977877 0.6740328 -0.13741326 0.49674508
0.24949807 1.0249723

l3.weight f4 [29, 10]
00000000: 2c08 dbbf 0939 ddbe d3d4 a43e d6fc f93e
00000010: 6500 11c0 cf43 9e3e 19dc f5bd 6089 e7bd
00000020: f3bd 993e a93f 11bf ffb8 2b3e d61a e43d
00000030: 04a2 0bc0 7b95 4e3e 24cb 29bf 18c3 1f3f
00000040: 53d8 18bf 10d2 503e e471 48bf 473c 81bd
00000050: 15e2 0ec0 fe33 7dbf 9b9b c9bd 2eac a4be
00000060: 9f50 d1be 6e6b b53e f02a fd3d e5b8 9f3e
00000070: a750 ca3e 4d27 86bf dcd7 6cbf 4130 dbbf
00000080: 0c82 bf3d 761e 15c0 f4be fc3e 434d ca3d
00000090: d90e ef3d d382 653e fd23 4a3e ef5e ecbf
000000a0: 3755 603e 1de4 2c3e 51fa d2bf 2783 80bf
000000b0: fd4e 10bd d6cb c2bc d02f 1fbf 036c 4bbf
000000c0: 924a e0bf 12a0 5f3f 02ac b4bd c51d 963e
000000d0: 3cf1 e23e 16f1 4cc0 4541 983e 38f5 c5be
000000e0: 838b 8fbe 1c56 a6bf 88e6 7dbf 60de 9a3e
000000f0: 0c2b 15c0 43d8 44be ae60 eebf 8d98 8e3e
00000100: 72c4 01c0 a0f9 59be 2a28 803e 1347 45bf
00000110: 77b2 dd3e 54e4 a63e f0f9 7dbe 7794 33bf
00000120: c0cd 003f cfe0 c1bf 91ea a43e c7ce 23bf
00000130: e297 133d 1f56 f9be b4e2 f03b 1faf cdbe
00000140: 392e 843e fec3 653e e49d a03e af53 c0bf
00000150: 2965 0c3e 92b8 23c0 7fda c9bd ea50 81bf
00000160: 7e1c 7ebc 33e9 bbbc 69be ed3c 29bd a0be
00000170: 85a9 b8be 286c 25bf 7ca4 fcbf 08c8 323e
00000180: d18c 353e c986 a9bf e926 c0be 177d 113f
00000190: 8150 1fc0 0cb9 c63e ac47 dcbe ef97 073e
000001a0: 9787 06c0 4e27 113f 99a0 c4bf 184c 393e
000001b0: b5e7 023e 6041 c63c a1bc 44be 90dd bfbe
000001c0: 99bd cabf 1383 0a3f ef2a d8be ad57 00c0
000001d0: cccb 7e3e 6978 e13e c730 253e 6328 53bf
000001e0: 7a2d c03d cc5b 71bc 269c a83d 831f c8be
000001f0: 1299 ddbf a22c 24bf 3602 e33e cd5f a03d
00000200: b90a f93e f2bd aabf c2d3 aa3e efa0 b33d
00000210: 9b21 163e 0094 a33e 35fa 02bf 33b7 7a3e
00000220: 33a3 b0be 0ba4 cf3e 0b84 09bf f1e7 8dbf
00000230: 7361 e8be 587f 53bf 2df9 4a3f b436 64bf
00000240: 3e99 223f 8da0 143e 924f 123e 8d79 81be
00000250: cd9c 2cc0 146e 94be 50c1 87bf 76c0 623e
00000260: 383b 4d3e b84c 5dbf dc95 ee3d b29f 293f
00000270: 299c 18c0 e59b f13e d951 8cbf ca35 583e
00000280: 2e1e 0e3f 0e9b 9fbf ac9b 933e fa53 79be
00000290: 6963 873e 263d dcbf 24f7 71bd 44c0 6d3e
000002a0: 1e6a a9bf 7381 873e 300c 3abe 78f1 dabe
000002b0: fad8 9dbf dd7b b13d cd6f 3cbf 72ae 12bf
000002c0: 8ada b43e b402 933e 87b3 54be a241 573e
000002d0: 9d5b b0bf ca0f 4dbf 27e2 0d3f 2c22 06c0
000002e0: dd5c a5be 10c4 05c0 99e8 b03e 26d0 b3bf
000002f0: 2bc2 243f 9db0 803d 2079 74bf 3562 133f
00000300: 71e6 c83e 558d f3bf 5ae5 77bf 21d6 f43e
00000310: d061 8dbf dff9 a1bf b0fe ce3d ed6f ca3b
00000320: 0d28 f6bf 5f62 aebd bd60 3ebf 57af 15c0
00000330: 1cea 45bf 7a02 5c3e 0b4c b33e 2431 b0bd
00000340: 245e 533e 08d9 953e 33f1 b8be 44ab 3f3f
00000350: 5512 05c0 8fb7 00c0 32dc 1ac0 d13f 3b3e
00000360: 3829 cbbd 69b9 9dbf 0fa4 093f 35fd 273e
00000370: 380e 05c0 99f4 d03e e99c b8bf eb20 6dbf
00000380: e53c 163f 4eaa 363e f473 2bbf e632 1abf
00000390: 9a7a c7be 5756 653e 5edf 10bf 495e c63e
000003a0: b686 01c0 8549 643e da11 babf 2f56 1a3e
000003b0: b8f6 b4bf 73a6 b8bf 8278 a23c 1f66 fc3e
000003c0: 9eec 283d 72c5 573e cc4a d5bf 8ef0 4d3d
000003d0: 863b cc3e dcdd 04bf adf2 06bd 1a9e a93e
000003e0: e545 a0bf b1dd 6bbe 72b9 383e 35a8 0dbe
000003f0: 9d6b 923c 29f9 01bf fa78 013f 4f92 40be
-1.7111869 -0.43207577 0.32193622 0.4882571 -2.265649 0.3091111 -0.12004871 -0.11305499
0.30027732 -0.5673776 0.16769789 0.11137931 -2.1817636 0.2017421 -0.66325593 0.62407064
-0.59705085 0.20392632 -0.78298783 -0.06310325 -2.232549 -0.9890746 -0.098441325 -0.32162613
-0.40881822 0.35433525 0.12361705 0.3119575 0.39514658 -1.0480744 -0.92516875 -1.7124101
0.09350976 -2.3299842 0.49364436 0.09878018 0.11672754 0.22413187 0.19740291 -1.8466471
0.21907507 0.16883893 -1.648264 -1.0040025 -0.03523158 -0.023778837 -0.6218233 -0.7946169
-1.7522757 0.8735362 -0.088218704 0.29319587 0.44324672 -3.2022147 0.29737297 -0.3866365
-0.28036126 -1.2995028 -0.9917989 0.30247784 -2.3307524 -0.19223122 -1.8623254 0.27850762
-2.027615 -0.2128663 0.25030643 -0.77061576 0.4330022 0.32596076 -0.24802375 -0.70148414
0.5031395 -1.5146731 0.3221021 -0.6398739 0.03603352 -0.48698518 0.007351244 -0.4017267
0.25816515 0.22438046 0.3137046 -1.5025538 0.13710465 -2.5581403 -0.09856128 -1.0102818
-0.015509723 -0.022938346 0.029021459 -0.31394318 -0.36066833 -0.6461816 -1.9737697 0.17459118
0.17729498 -1.3244258 -0.37529686 0.56831497 -2.4892886 0.38813055 -0.4302343 0.13241552
-2.1020257 0.567006 -1.536151 0.18095434 0.12783702 0.024201095 -0.19212581 -0.37473726
-1.5839111 0.54106253 -0.42220256 -2.0053513 0.2488243 0.44037178 0.16131888 -0.824835
0.09383674 -0.014731359 0.08232908 -0.39086542 -1.7312338 -0.64130604 0.44337624 0.078307725
0.48640993 -1.3339217 0.33364683 0.0877093 0.14661257 0.31948853 -0.51163036 0.24483947
-0.3449951 0.40554842 -0.53717107 -1.1086408 -0.45386848 -0.82616186 0.7928646 -0.8914597
0.6351508 0.1451437 0.14288166 -0.25288048 -2.6970704 -0.28990233 -1.0605869 0.2214373
0.20042121 -0.8644519 0.11649677 0.662593 -2.3845313 0.4718925 -1.0962478 0.21114269
0.555148 -1.2469194 0.28829706 -0.24348441 0.2644303 -1.7206161 -0.059073582 0.23217875
-1.3235509 0.2646595 -0.18168712 -0.4276235 -1.2331841 0.08666203 -0.73608094 -0.5729743
0.35322982 0.28713 -0.20771609 0.2102113 -1.3777958 -0.8010222 0.55423206 -2.0958357
-0.32297412 -2.0900917 0.34552458 -1.4047897 0.64358777 0.06283686 -0.9549732 0.5757173
0.39238313 -1.9027506 -0.9683434 0.47819617 -1.1045475 -1.265438 0.101071715 0.0061778934
-1.9230973 -0.085148565 -0.7436636 -2.338827 -0.7731035 0.2148532 0.35018954 -0.08603123
0.2064138 0.29267144 -0.3612152 0.74870706 -2.079244 -2.0112035 -2.4196897 0.18286063
-0.09919971 -1.2322208 0.5376596 0.16405185 -2.0789928 0.40811613 -1.4422885 -0.92628354
0.5868667 0.17838404 -0.66973805 -0.60233915 -0.38960725 0.22396217 -0.5659083 0.3874381
-2.023847 0.2229367 -1.4536698 0.15071939 -1.4137793 -1.4425796 0.019832853 0.49296662
0.04124128 0.21071413 -1.6663451 0.05027824 0.39889163 -0.5190103 -0.032946277 0.33128434
-1.252133 -0.23033787 0.18039492 -0.13833697 0.01787358 -0.50770813 0.5057522 -0.18805812

l3.bias f4 [29]
00000000: 3d61 07be 5b01 413d 56c3 163d 6059 163e
00000010: 3bb3 de3e 90ea 86be 691e 50be 371e 7abd
00000020: cae9 06be d1ef 0d3e 2e88 ad3e 5351 6cbe
00000030: 51a7 89bd 6696 96be 1e76 6e3d 486f 2c3c
00000040: 4acc df3d a463 d03c 19af c03e 95df 0fbe
00000050: e566 d53e 91f5 943e 948b 97be c3a9 8cbe
00000060: a538 8bbe d333 bdbe 047e 823e 0224 66be
00000070: e5dd c33d
-0.13220687 0.047120433 0.03680738 0.14682531 0.43496117 -0.26350832 -0.203241 -0.06106397
-0.13175121 0.13861014 0.3389296 -0.23077898 -0.06721366 -0.2941162 0.058218114 0.010524578
0.10927637 0.025438137 0.3763359 -0.14050134 0.41680065 0.29093602 -0.29598677 -0.27473268
-0.27191654 -0.369536 0.25486767 -0.22474673 0.095638074
